cpp_infer_mnist/resource/conv_mnist.tflite (tflite, 35468 bytes, 6 tensors)

model/conv2d/BiasAdd/ReadVariableOp/resource f4 [8]
00000000: 38ab 1cbb c637 d13d e463 e93b e2c7 fcbc
00000010: a40f 303c 5e99 62b9 c09b 68bb fbb9 05bd
-0.0023905765 0.10215716 0.0071225036 -0.03085703 0.0107459165 -0.00021610173 -0.0035493225 -0.032648068

model/conv2d_1/BiasAdd/ReadVariableOp/resource f4 [4]
00000000: da78 1d3d 099d bf3b afb4 163e abbb b0bd
0.03844533 0.0058475775 0.14717363 -0.08629545

model/conv2d/Conv2D f4 [8, 3, 3, 1]
00000000: da21 bdbe ee82 3cbe e166 cabd eee1 b0bd
00000010: 32c3 3abe 8a54 4f3e 11ea be3e e144 e33e
00000020: f6a1 c43e 029e a93e 2291 da3e 9396 a23e
00000030: 5b71 2cbf 8cc6 1bbe fc13 8fbd 190b 30be
00000040: eb1d 5dbe aa32 93be 13b3 0b3f 4fe9 823e
00000050: a000 b83e ca62 2f3e 158e 163e fbea 6f3e
00000060: e955 a33d a532 da3e 2b0e c3bd a876 163e
00000070: d2bb 6a3e bb88 133f c5a8 333e 2f31 713e
00000080: 384f ab3e 03b5 59bf ffa2 e1be 6266 25bf
00000090: 519c af3e 7ded df3b c3f0 2b3e d295 763e
000000a0: ab4c 723e ca7a b4be 0bf2 97bd 3ae1 fd3d
000000b0: 9736 24be 1589 30be 9d43 6c3e ba86 bc3e
000000c0: acad 09bd a23a ec3e f2ca 553e e36f 8f3d
000000d0: 4446 883e 1cd5 363e 3a03 f8be 65d1 23bb
000000e0: 8c7d 043f ff95 33bf d82d 8ebd 5945 063f
000000f0: 0cef 0abf be3b 6dbc 20b1 d93e 4165 f3bc
00000100: f479 8bbe 91fe 5dbd 0e9b b43e a0e0 ee3e
00000110: c2ec 643d afab a23e 6620 c9bc 5ccd ff3d
-0.3693989 -0.1840932 -0.09882904 -0.08636843 -0.18238524 0.20247093 0.37287953 0.44388488
0.38404816 0.33128363 0.42688853 0.31755504 -0.67360467 -0.15212458 -0.069862336 -0.17191733
-0.21593444 -0.2874959 0.5457012 0.25568625 0.35937977 0.17127529 0.14702637 0.23429482
0.079753704 0.42616764 -0.09524187 0.14693701 0.2292321 0.5763051 0.17544849 0.23553918
0.33458877 -0.85041827 -0.4406967 -0.6460935 0.34298947 0.0068337307 0.16791062 0.2408059
0.23662059 -0.3524993 -0.07419213 0.12396474 -0.1603645 -0.17239793 0.23072667 0.36821538
-0.033612892 0.46138483 0.20878199 0.070037626 0.26616108 0.17854732 -0.48439962 -0.0024996635
0.5175407 -0.7015075 -0.06942338 0.52449566 -0.54271007 -0.014479576 0.42517948 -0.029711368
-0.2724148 -0.05419785 0.35274547 0.4665575 0.055889852 0.3177161 -0.024551582 0.12490341

model/conv2d_1/Conv2D f4 [4, 3, 3, 8]
00000000: b9b2 3e3e cab0 83bd 9b4c 60be d9b7 133e
00000010: 9f14 d93d d924 3ebe 54f7 22bf 3637 223e
00000020: e6e4 7fbe 2db8 753e 1afe 9cbe 379b 6e3d
00000030: b57a 65be c149 78be 75e9 c1be 04ac 46be
00000040: 2301 04be 7f1f c93e f453 f9be e393 8e3e
00000050: e29f 74be 0f4b cdbe 4234 04bf fec0 40be
00000060: edc9 a23e 214c b9bd be19 54bd d418 813e
00000070: 823f aa3d f988 b2bd 711a cbbe 23f0 a63d
00000080: c3d2 21bd aa2c 373e 26c5 2c3b 8df4 26bc
00000090: 1867 12be 228b 433e a5ab e83d fa74 643e
000000a0: 4206 033d 913f 863e 0402 a13d 8530 19bd
000000b0: 2c05 e33d cbdc 403d af9c 3b3d f3d2 313d
000000c0: 0f3c 333e d48b 9dbd 5cd9 523e 245d a23d
000000d0: 7d7d b73e 8b68 5c3e 8595 203e ebcc 963e
000000e0: 1fa2 823e afb1 5d3d 3dd9 353e 6e21 9e3e
000000f0: 881b 023c 8dfb 1e3e 3b3b 133d 3023 573e
00000100: 6f27 763e fc2c 35bd 4c6c 253d 31e1 163f
00000110: 16f6 f33c 8a06 863e bf73 dc3d 33da d93d
00000120: cb8a b3bd 7b3a 803e 9084 e93d c2b5 2a3e
00000130: fed3 503e 9dc8 79be 6e5d 363f d32f 28be
00000140: 4287 40bd e0c1 91be 83ef c4bb 6ded ebbe
00000150: e7e8 79be b609 8e3e 8bb9 503f 0a44 7cbe
00000160: a465 2b3e e141 92be fe9c 603e 26e8 f7be
00000170: 864f 313b ee28 013e c36d c43e 2da5 0b3e
00000180: 0554 c13e d265 85bd 5011 debe fb75 b6be
00000190: e295 1ebe 8b06 833e f84f 003f 92ba 3cbe
000001a0: 4811 863d 010f bfbe a34f 48bd 1870 b1bd
000001b0: 10e0 24bd fde7 763e fd15 743e a99d c23d
000001c0: 49ea 66be 005a 4dbe cbce 4c3d d596 6dbe
000001d0: d3e9 ee3d 8bfb 86be 2080 833e 27d3 28be
000001e0: ce55 213e fe4c f43d 3ff1 54be b028 c23e
000001f0: e064 3b3e 8751 913e b986 61bd e8e6 4a3e
00000200: 547c 87be ea97 133c ef09 76be 6ba9 2fbd
00000210: c22e 263d 295e 1a3e 6f05 e23e 080e 443e
00000220: c34b 91bb 78cd c43d 2a82 e33c 383c ad3e
00000230: 18f8 8b3c a641 b3be 9849 a83e 8933 2c3e
00000240: f0cb 0ebe d76e 07bf f313 933e c260 fabe
00000250: 1c99 883e 65ce bb3e d10b 1c3f 4f07 a73e
00000260: ca95 92be 5b0c 77be 82ec b93e 9b08 f4be
00000270: 9acb a53d f6b7 163e 85db b13d dfee 2a3e
00000280: a840 91be 02ee 2d3d ac0d 8bbe 9d7c 89be
00000290: 0c36 a53d 4bdf abbd fea4 d43d 4718 01be
000002a0: f01a f2bd 854e dfbe 1df9 b03e 4f8e 3bbf
000002b0: 64a1 823e 9689 8a3e 2cb9 de3e a390 b2bc
000002c0: e761 68be 6cc3 c3bc b4ba bb3d 4ad1 fbbe
000002d0: 6709 c43d 5139 d3be 5e3a 733e cedf 81be
000002e0: b65f 223d bedc 83bb eec3 9ebe 105a 10bf
000002f0: d472 0abe ba6f bfbb 1351 583f 8a8a e1be
00000300: 7c71 6c3d 2672 f1be d97f 5e3e d97f 50bf
00000310: 041b 5c3e c1d9 303e b6cc 123f e10b f7ba
00000320: 8c3d 96be 2a2e a03d d87f d43d 6957 3ebf
00000330: 2057 e73d 6dfa a1be 8fa7 2b3e 785f 54bd
00000340: d38d 43bd 384c 81bd 6b2a bfbe f415 11be
00000350: f8e6 b0bd 1fa6 263e 3974 7f3f bdfd 99be
00000360: a4a4 443e d76e 72be 2221 ae3d 29c5 b33c
00000370: a2e8 f03d 32d9 05bd d70c ddbd 0e1d 7b3e
00000380: 34d5 813e bd82 e9be 03be a3bd 16a9 87bd
00000390: a0c7 39be 18e1 3cbd 8fdc 14bf 87ca b13d
000003a0: dd35 e23d 292e 97be 3e3c abbe 187b cfbe
000003b0: e0b7 a53d 54e1 123e fbf4 01bf 1fcd 063d
000003c0: a98a 88be 9a82 223e d819 b73c 1b83 993e
000003d0: 3593 3c3d 5afd 2ebd 4ce8 4d3c c419 fd3d
000003e0: cf1b 3c3e 838c a63e 1525 d93d 1d4c 3a3f
000003f0: 49e6 35bd bc1e e4b9 8e6a 893e 4e49 7e3e
0.18622865 -0.06430204 -0.21904223 0.14425601 0.10599636 -0.18568744 -0.6365864 0.15841374
-0.24989662 0.23996039 -0.30662614 0.058253493 -0.2241009 -0.24246885 -0.37873426 -0.19401556
-0.12891059 0.39281842 -0.48696864 0.27847204 -0.23889115 -0.40096328 -0.5164224 -0.1882362
0.31794682 -0.090477236 -0.051782362 0.25214255 0.083128944 -0.08717532 -0.3966861 0.08151271
-0.03950764 0.17888132 0.0026362627 -0.010190141 -0.1429714 0.19096044 0.113608636 0.22310248
0.03198839 0.26220372 0.078617126 -0.037399787 0.11084971 0.047085565 0.045803722 0.043414067
0.1750338 -0.07692686 0.20590729 0.079279214 0.35837927 0.21524255 0.15682037 0.29453215
0.25514314 0.05412453 0.17758651 0.3088488 0.007941134 0.15525647 0.03594516 0.21009517
0.2403848 -0.044232354 0.040386483 0.58937365 0.029780429 0.26176864 0.10764264 0.10637321
-0.08766707 0.25044617 0.114022374 0.16670898 0.20393369 -0.24392934 0.7123631 -0.16424493
-0.047003992 -0.28468227 -0.0060099973 -0.4607958 -0.24405251 0.27741784 0.81533116 -0.2463533
0.16737992 -0.28565887 0.21934888 -0.48419303 0.0027055456 0.1261327 0.38364992 0.13637228
0.37759414 -0.06513561 -0.43372583 -0.35636887 -0.15486863 0.2559093 0.5012202 -0.18430546
0.06546265 -0.37316135 -0.048904072 -0.08663958 -0.040252745 0.24111934 0.23836513 0.095027275
-0.2255031 -0.20053864 0.0500019 -0.23202069 0.11665692 -0.26363787 0.2568369 -0.16486798
0.15755388 0.119287476 -0.20795153 0.37921667 0.183002 0.28382513 -0.055060122 0.19814646
-0.26462042 0.009008387 -0.24027227 -0.04288618 0.040571935 0.15074982 0.4414477 0.19145977
-0.0044340803 0.096095026 0.027772028 0.33835006 0.017086074 -0.35011023 0.32868648 0.16816534
-0.13944983 -0.52903503 0.28726158 -0.48901945 0.26679313 0.36680904 0.6095553 0.32622764
-0.28629905 -0.24125807 0.36313254 -0.47662815 0.080954745 0.14718613 0.08684448 0.16692685
-0.2836964 0.04246331 -0.27158868 -0.26852885 0.08066949 -0.08392199 0.10383032 -0.12606917
-0.11821544 -0.43614593 0.34565058 -0.7326402 0.25513756 0.27058095 0.4350065 -0.021797484
-0.22693597 -0.023896895 0.0916647 -0.49183112 0.09572106 -0.41254666 0.23752734 -0.25366062
0.03964206 -0.0040241173 -0.31008857 -0.56387424 -0.13520366 -0.0058421763 0.8449871 -0.4405101
0.057725415 -0.471574 0.21728458 -0.8144508 0.2149468 0.17270567 0.57343614 -0.0018848145
-0.29343832 0.07821305 0.10375947 -0.7435213 0.11295915 -0.31636372 0.16763137 -0.05184886
-0.047742676 -0.06313366 -0.3733705 -0.1416853 -0.08637804 0.16274308 0.99786717 -0.300764
0.1920343 -0.23675095 0.08502413 0.0219446 0.11763121 -0.032677837 -0.10793465 0.24522802
0.25357974 -0.45607558 -0.07995226 -0.066240475 -0.18142557 -0.046113104 -0.58149046 0.08681207
0.1104543 -0.29527405 -0.334444 -0.405236 0.08091712 0.14343768 -0.50764436 0.032910462
-0.2666829 0.15870133 0.02235119 0.29982838 0.046038825 -0.042722084 0.012567591 0.1235843
0.18369983 0.32529077 0.10602776 0.7277239 -0.04440907 -0.00043510448 0.26839107 0.24832651

model/dense/BiasAdd/ReadVariableOp/resource f4 [10]
00000000: a9e3 a6bc 34b3 f83d 7c0e 3a3c 5ca9 b5bc
00000010: 2760 78bd d567 b23d 2694 d0bc 8b7f 253d
00000020: 65e8 dbbd 3ada c6bc
-0.020372229 0.12143555 0.011355992 -0.022175483 -0.060638573 0.08711211 -0.025461268 0.040404838
-0.10737685 -0.02427398

model/dense/MatMul f4 [10, 784]
00000000: fe6d 83bd 7498 0c3d 3b0a 2fbd 2a48 b9bd
00000010: 6dd0 a23b 5261 eebd b0f9 93bd 6f7e 6abc
00000020: c226 82bd 322f 2cbe ada5 083d 4b05 86bd
00000030: 5b69 c3bd 89da 1a3c 5877 a4bd ae3d 9bbd
00000040: 9b23 103d a631 93bd 52f2 15be c865 733d
00000050: baa8 a0bd 778d d73c 4477 4fbe a442 143e
00000060: d1f0 53b9 958b 823c 429b b6bc 9051 e53c
00000070: b48b 6ebd 3574 163b 849d e8bd 2e5b bfbb
00000080: ffc1 b6bc ca91 a5bd 8f8b 13be bfd2 fd3c
00000090: 36b7 a3bd 7719 53be 6a89 84bc 1b6d e43d
000000a0: 7aea e6bd 8673 d8bd eba3 bebd 96ff e9bd
000000b0: 2ca5 2ebe 88c4 2abe 35db ddbd a08f fbbd
000000c0: b0c2 f5bd 231d 8dbd b5d9 8cbd a2b1 01bd
000000d0: a12f 86bd 1d34 e8bd dae8 febd 7644 83bd
000000e0: aca4 d4bd c15c 263d c0dd 163b c962 b33d
000000f0: 2c6d 84bc 7601 e5bc b6b7 f53d 2442 6f3d
00000100: 0b6f b3bd 51bc 85bd 8f45 c2bd bf6a 5d3e
00000110: 357a cdbc 8497 06be 2e8b 223d b6dc b63d
00000120: c970 ccbd 7fe5 58bc 90c7 efbd 2638 bcbd
00000130: 6bf3 b0bc a554 17bd 1520 11be ab64 35be
00000140: 4a2c 91bd 4ae6 20bc 0eeb afbd a16d 20bd
00000150: 5c9c e8bc 6629 46bd 48cb 41bc 20fd ee3d
00000160: 1dc3 37bc d108 03bc 4dd4 8bbd ebe9 9e3d
00000170: 1d28 98bc 2c59 a1bd d1ce c43c 8985 f33b
00000180: ff9b 4bbc 78a6 78bd 4690 93bd 7f5d 88bc
00000190: 3c36 68b9 e455 00bd 4fa4 3bbe 0f3a abbd
000001a0: 0fae 31bd 85a2 e2bd f1f2 79bd ed2d cdbd
000001b0: be3b 8cbe d4d6 8abe 514b 97be 3408 a03c
000001c0: 1f56 dfbd 37e2 3cbe e9b0 16be f017 f8bd
000001d0: ebfe 3e3d 1174 10be 0725 333e 331e d9bc
000001e0: cacb b53d 37e2 dabd 202f a7bd 595a bdbd
000001f0: fce8 45bd 76a8 dabc cd8c 5cbe b596 b4be
00000200: 0be7 963b 18c2 c0bd 5d41 2fbe 54d4 48be
00000210: 1e73 1ebd aa56 a8bd 5cc2 4ebd 34a9 bebd
00000220: e4e2 773b 5845 9cbd 721a dfbd 5606 8abd
00000230: d50a d6bc d003 5abd 573c f6bd c794 293d
00000240: 358d 853d 303a 7d3d ef5d 99bd 3625 8838
00000250: f0e1 84bb 08b0 c93c 025c 99bb 6e76 11bc
00000260: 31e1 c7ba 9b5e bcbd 46a9 dbbd 42ea 5ebd
00000270: 7878 2ebd 39bf 21bd 8f10 06be 88c3 a5bd
00000280: b3cd 5a3b ac95 83bd e61b 0a3d af81 acbd
00000290: 291d a1bc 4922 23bd faac 56bb ed34 cabd
000002a0: 8434 f1bd bd98 f2bd 07ca 58be 427f 8dbe
000002b0: 2dbc 863d a294 3bbe 9bd6 853d a0d2 95bd
000002c0: f2f5 0cbd ce50 33bd 89e8 4f3b 6a02 6bbe
000002d0: acec 76bc c4ef ce3c 3863 1cbc fc0b 5bbe
000002e0: b2d1 513c 745a e83c 4451 16be aa75 afbd
000002f0: 2a05 55bd 4d76 c5bc 2fae 833c 53d1 02bc
00000300: b42d 0c3d 05c4 be3b acfb 72bd 43fc 953d
00000310: d531 453d 278d 89bc 2f01 983b da04 213d
00000320: 1075 963d 7e3a e73c 6f34 a7bd 1ead c33d
00000330: 5795 863d 9a97 883a ac74 dcbd 3edd 0c3d
00000340: 0557 0f3d ef44 b63b f77c 92bc 5cdf f33c
00000350: e572 a23c c8a6 cbbd 067f 1b3b f720 1f3b
00000360: f6a7 8a3a e6dc e9bd ba3a 43bc 3866 06bd
00000370: 5c47 a6bd e2a4 f5bd 609b 05be aff5 80bd
00000380: c5a8 9abd b627 50bd 3ebb 99bd cca9 2fbd
00000390: f9ad cd3d 7f99 a9bd 378e 773d c102 1fbe
000003a0: 516a c73c f639 15bd 16c5 02be 03f8 e4bd
000003b0: 6878 4abd d76b 143d 3b31 31bc 6c46 5abc
000003c0: 0457 cebc a573 d93c 8233 acbc 9655 81ba
000003d0: b775 afbb 6d58 2abd 13eb 6f3d c6a5 ae3c
000003e0: a6fe b63b 16ac dfba 1c09 b33d 2711 dc3b
000003f0: de5e 913c d12b 82bd b62b fcbc 14a9 533d
-0.06417464 0.034325078 -0.042734366 -0.09046967 0.004968694 -0.11639656 -0.072253585 -0.014312371
-0.06355049 -0.16814879 0.033361126 -0.06543978 -0.09541579 0.009451517 -0.080305755 -0.07580124
0.035190206 -0.07187204 -0.14643219 0.059423238 -0.07844682 0.026312573 -0.2026034 0.14478546
-0.00020212239 0.015935699 -0.02229083 0.027992994 -0.0582387 0.0022957448 -0.11358169 -0.005839727
-0.022309301 -0.08084448 -0.14408706 0.03098428 -0.07993929 -0.20615183 -0.016178805 0.11153623
-0.112751916 -0.10568909 -0.093086086 -0.11425702 -0.17055196 -0.16676533 -0.10832826 -0.12283254
-0.12000024 -0.06890323 -0.06877462 -0.031663544 -0.06552053 -0.11338065 -0.12446757 -0.06409542
-0.10382971 0.0406158 0.0023020357 0.08759076 -0.016165338 -0.027954798 0.11997931 0.058412686
-0.08761414 -0.06530059 -0.094859235 0.21622752 -0.025082687 -0.13143736 0.039683513 0.08928816
-0.099824496 -0.01323831 -0.117079854 -0.09190397 -0.021600446 -0.036945958 -0.14172395 -0.17714183
-0.070885256 -0.00982053 -0.08589755 -0.03916705 -0.02839487 -0.048379324 -0.011828251 0.116693735
-0.011215952 -0.007997707 -0.068276025 0.0775946 -0.018573815 -0.07878336 0.024024399 0.00743169
-0.012427329 -0.060705632 -0.07205252 -0.016646145 -0.00022145448 -0.03133191 -0.18324398 -0.08360683
-0.043378886 -0.110661544 -0.061022703 -0.10018525 -0.2738933 -0.27117026 -0.2954965 0.019535162
-0.10905098 -0.18445669 -0.14715923 -0.12113941 0.046629827 -0.14106776 0.17494594 -0.026503658
0.0887676 -0.10687678 -0.08163285 -0.09245748 -0.048317894 -0.026691657 -0.21538086 -0.3527123
0.004605179 -0.094120204 -0.17114778 -0.19612247 -0.038684003 -0.08219655 -0.050478324 -0.09309617
0.0037824446 -0.07630414 -0.10893716 -0.0673949 -0.026128212 -0.053226292 -0.12023228 0.04140165
0.06521074 0.06182307 -0.074886195 6.4919164e-05 -0.004055254 0.024620071 -0.0046801576 -0.0088783335
-0.0015249607 -0.09197732 -0.10725646 -0.054422624 -0.042595357 -0.039489005 -0.13092254 -0.08093935
0.0033386766 -0.06425032 0.033718012 -0.08423173 -0.019667225 -0.03982762 -0.003275691 -0.09873376
-0.11777595 -0.11845539 -0.21170817 -0.27636153 0.065788604 -0.18318418 0.06535073 -0.07315564
-0.03441424 -0.043778233 0.0031724295 -0.2295014 -0.015071075 0.025260814 -0.00954514 -0.2139129
0.012806343 0.028363444 -0.14679438 -0.085673645 -0.052006878 -0.024104262 0.016074268 -0.007984477
0.034223273 0.005821707 -0.059322044 0.07323506 0.048143227 -0.01679094 0.004638813 0.039311267
0.07346547 0.028226133 -0.08164298 0.09554504 0.06571453 0.0010421157 -0.10764441 0.03439068
0.034995098 0.0055624167 -0.017881854 0.029769592 0.019830177 -0.099439204 0.0023726835 0.0024281123
0.0010578621 -0.11419086 -0.011915857 -0.032812327 -0.081190795 -0.119943395 -0.13047552 -0.062968604
-0.075517215 -0.05081912 -0.07506417 -0.04288654 0.10042948 -0.0828123 0.06043836 -0.15528394
0.024342688 -0.03643223 -0.12770495 -0.11180117 -0.049431235 0.036235657 -0.01081496 -0.013322454
-0.025187977 0.026544401 -0.021020655 -0.0009867426 -0.005354609 -0.041588236 0.058573794 0.021319281
0.0055845557 -0.0017064835 0.08741972 0.006715912 0.017745432 -0.063560136 -0.030782562 0.051674917
